…
checkpoint_config = dict(by_epoch=False, interval=8000)
evaluation = dict(interval=80000, metric='mIoU')
device = 'cuda'
work_dir = './work_dirs/fpn_dgformer_ade20k_80k'
gpu_ids = range(0, 1)

2023-07-15 23:19:18,993 - mmseg - INFO - load checkpoint from local path: pretrained/dgformer.pth
2023-07-15 23:19:19,012 - mmseg - WARNING - The model and loaded state dict do not match exactly

unexpected key in source state_dict: head.weight, head.bias

2023-07-15 23:19:19,034 - mmseg - INFO - EncoderDecoder(
  (backbone): DGFormer_DGA_EFFN(
    (pos_block): ModuleList(
      (0): PosCNN(
        (proj): Sequential(
          (0): Conv2d(32, 32, kernel_size=(3, 3), stride=(1, 1), padding=(1, 1), groups=32)
        )
      )
      (1): PosCNN(
        (proj): Sequential(
          (0): Conv2d(64, 64, kernel_size=(3, 3), stride=(1, 1), padding=(1, 1), groups=64)
        )
      )
      (2): PosCNN(
        (proj): Sequential(
          (0): Conv2d(160, 160, kernel_size=(3, 3), stride=(1, 1), padding=(1, 1), groups=160)
        )
      )
      (3): PosCNN(
        (proj): Sequential(
          (0): Conv2d(256, 256, kernel_size=(3, 3), stride=(1, 1), padding=(1, 1), groups=256)
        )
      )
    )
    (patch_embed1): ConvStem(
      (conv1): Conv2d(3, 32, kernel_size=(1, 1), stride=(1, 1), bias=False)
      (bn1): BatchNorm2d(32, eps=1e-05, momentum=0.1, affine=True, track_running_stats=True)
      (act1): SiLU()
      (conv_dw1): Conv2d(32, 32, kernel_size=(3, 3), stride=(2, 2), padding=(1, 1), groups=32, bias=False)
      (bn2): BatchNorm2d(32, eps=1e-05, momentum=0.1, affine=True, track_running_stats=True)
      (act2): SiLU()
      (conv_pw1): Conv2d(32, 16, kernel_size=(1, 1), stride=(1, 1), bias=False)
      (bn3): BatchNorm2d(16, eps=1e-05, momentum=0.1, affine=True, track_running_stats=True)
      (conv_pw2): Conv2d(16, 64, kernel_size=(1, 1), stride=(1, 1), bias=False)
      (bn4): BatchNorm2d(64, eps=1e-05, momentum=0.1, affine=True, track_running_stats=True)
      (act3): SiLU()
      (conv_dw2): Conv2d(64, 64, kernel_size=(3, 3), stride=(2, 2), padding=(1, 1), groups=64, bias=False)
      (bn5): BatchNorm2d(64, eps=1e-05, momentum=0.1, affine=True, track_running_stats=True)
      (act4): SiLU()
      (conv_pw3): Conv2d(64, 32, kernel_size=(1, 1), stride=(1, 1), bias=False)
      (bn6): BatchNorm2d(32, eps=1e-05, momentum=0.1, affine=True, track_running_stats=True)
    )
    (block1): ModuleList(
      (0): AbsolutePositionEmbedding(
        (drop): Dropout(p=0.0, inplace=False)
      )
      (1): Dual_Granularity_Former_Block(
        (norm1): LayerNorm((32,), eps=1e-06, elementwise_affine=True)
        (attn): Dual_Granularity_Attention(
          (q): Linear(in_features=32, out_features=32, bias=True)
          (kv): Linear(in_features=32, out_features=64, bias=True)
          (attn_drop): Dropout(p=0.0, inplace=False)
          (proj): Linear(in_features=32, out_features=32, bias=True)
          (proj_drop): Dropout(p=0.0, inplace=False)
          (sr): ModuleList(
            (0): MaxPool2d(kernel_size=8, stride=8, padding=0, dilation=1, ceil_mode=False)
            (1): MaxPool2d(kernel_size=4, stride=4, padding=0, dilation=1, ceil_mode=False)
          )
          (norms): ModuleList(
            (0): LayerNorm((32,), eps=1e-05, elementwise_affine=True)
            (1): LayerNorm((32,), eps=1e-05, elementwise_affine=True)
          )
        )
        (drop_path): Identity()
        (norm2): LayerNorm((32,), eps=1e-06, elementwise_affine=True)
        (mlp): Efficent_FFN(
          (se): SEAttention(
            (avg_pool): AdaptiveAvgPool2d(output_size=1)
            (fc): Sequential(
              (0): Linear(in_features=32, out_features=2, bias=True)
              (1): ReLU(inplace=True)
              (2): Linear(in_features=2, out_features=32, bias=True)
              (3): Sigmoid()
            )
          )
          (mffn): Sequential(
            (0): Conv2d(32, 128, kernel_size=(1, 1), stride=(1, 1))
            (1): BatchNorm2d(128, eps=1e-05, momentum=0.1, affine=True, track_running_stats=True)
            (2): SiLU()
            (3): Conv2d(128, 128, kernel_size=(3, 3), stride=(1, 1), padding=(1, 1), groups=128)
            (4): BatchNorm2d(128, eps=1e-05, momentum=0.1, affine=True, track_running_stats=True)
            (5): SiLU()
            (6): Conv2d(128, 32, kernel_size=(1, 1), stride=(1, 1))
            (7): BatchNorm2d(32, eps=1e-05, momentum=0.1, affine=True, track_running_stats=True)
          )
          (drop): Dropout(p=0.0, inplace=False)
        )
      )
      (2): Dual_Granularity_Former_Block(
        (norm1): LayerNorm((32,), eps=1e-06, elementwise_affine=True)
        (attn): Dual_Granularity_Attention(
          (q): Linear(in_features=32, out_features=32, bias=True)
          (kv): Linear(in_features=32, out_features=64, bias=True)
          (attn_drop): Dropout(p=0.0, inplace=False)
          (proj): Linear(in_features=32, out_features=32, bias=True)
          (proj_drop): Dropout(p=0.0, inplace=False)
          (sr): ModuleList(
            (0): MaxPool2d(kernel_size=8, stride=8, padding=0, dilation=1, ceil_mode=False)
            (1): MaxPool2d(kernel_size=4, stride=4, padding=0, dilation=1, ceil_mode=False)
          )
          (norms): ModuleList(
            (0): LayerNorm((32,), eps=1e-05, elementwise_affine=True)
            (1): LayerNorm((32,), eps=1e-05, elementwise_affine=True)
          )
        )
        (drop_path): DropPath(drop_prob=0.014)
        (norm2): LayerNorm((32,), eps=1e-06, elementwise_affine=True)
        (mlp): Efficent_FFN(
          (se): SEAttention(
            (avg_pool): AdaptiveAvgPool2d(output_size=1)
            (fc): Sequential(
              (0): Linear(in_features=32, out_features=2, bias=True)
              (1): ReLU(inplace=True)
              (2): Linear(in_features=2, out_features=32, bias=True)
              (3): Sigmoid()
            )
          )
          (mffn): Sequential(
            (0): Conv2d(32, 128, kernel_size=(1, 1), stride=(1, 1))
            (1): BatchNorm2d(128, eps=1e-05, momentum=0.1, affine=True, track_running_stats=True)
            (2): SiLU()
            (3): Conv2d(128, 128, kernel_size=(3, 3), stride=(1, 1), padding=(1, 1), groups=128)
            (4): BatchNorm2d(128, eps=1e-05, momentum=0.1, affine=True, track_running_stats=True)
            (5): SiLU()
            (6): Conv2d(128, 32, kernel_size=(1, 1), stride=(1, 1))
            (7): BatchNorm2d(32, eps=1e-05, momentum=0.1, affine=True, track_running_stats=True)
          )
          (drop): Dropout(p=0.0, inplace=False)
        )
      )
    )
    (norm1): LayerNorm((32,), eps=1e-06, elementwise_affine=True)
    (patch_embed2): OverlapPatchEmbed(
      (proj): Conv2d(32, 64, kernel_size=(3, 3), stride=(2, 2), padding=(1, 1))
      (norm): LayerNorm((64,), eps=1e-05, elementwise_affine=True)
    )
    (block2): ModuleList(
      (0): AbsolutePositionEmbedding(
        (drop): Dropout(p=0.0, inplace=False)
      )
      (1): Dual_Granularity_Former_Block(
        (norm1): LayerNorm((64,), eps=1e-06, elementwise_affine=True)
        (attn): Dual_Granularity_Attention(
          (q): Linear(in_features=64, out_features=64, bias=True)
          (kv): Linear(in_features=64, out_features=128, bias=True)
          (attn_drop): Dropout(p=0.0, inplace=False)
          (proj): Linear(in_features=64, out_features=64, bias=True)
          (proj_drop): Dropout(p=0.0, inplace=False)
          (sr): ModuleList(
            (0): MaxPool2d(kernel_size=6, stride=6, padding=0, dilation=1, ceil_mode=False)
            (1): MaxPool2d(kernel_size=3, stride=3, padding=0, dilation=1, ceil_mode=False)
          )
          (norms): ModuleList(
            (0): LayerNorm((64,), eps=1e-05, elementwise_affine=True)
            (1): LayerNorm((64,), eps=1e-05, elementwise_affine=True)
          )
        )
        (drop_path): DropPath(drop_prob=0.029)
        (norm2): LayerNorm((64,), eps=1e-06, elementwise_affine=True)
        (mlp): Efficent_FFN(
          (se): SEAttention(
            (avg_pool): AdaptiveAvgPool2d(output_size=1)
            (fc): Sequential(
              (0): Linear(in_features=64, out_features=4, bias=True)
              (1): ReLU(inplace=True)
              (2): Linear(in_features=4, out_features=64, bias=True)
              (3): Sigmoid()
            )
          )
          (mffn): Sequential(
            (0): Conv2d(64, 256, kernel_size=(1, 1), stride=(1, 1))
            (1): BatchNorm2d(256, eps=1e-05, momentum=0.1, affine=True, track_running_stats=True)
            (2): SiLU()
            (3): Conv2d(256, 256, kernel_size=(3, 3), stride=(1, 1), padding=(1, 1), groups=256)
            (4): BatchNorm2d(256, eps=1e-05, momentum=0.1, affine=True, track_running_stats=True)
            (5): SiLU()
            (6): Conv2d(256, 64, kernel_size=(1, 1), stride=(1, 1))
            (7): BatchNorm2d(64, eps=1e-05, momentum=0.1, affine=True, track_running_stats=True)
          )
          (drop): Dropout(p=0.0, inplace=False)
        )
      )
      (2): Dual_Granularity_Former_Block(
        (norm1): LayerNorm((64,), eps=1e-06, elementwise_affine=True)
        (attn): Dual_Granularity_Attention(
          (q): Linear(in_features=64, out_features=64, bias=True)
          (kv): Linear(in_features=64, out_features=128, bias=True)
          (attn_drop): Dropout(p=0.0, inplace=False)
          (proj): Linear(in_features=64, out_features=64, bias=True)
          (proj_drop): Dropout(p=0.0, inplace=False)
          (sr): ModuleList(
            (0): MaxPool2d(kernel_size=6, stride=6, padding=0, dilation=1, ceil_mode=False)
            (1): MaxPool2d(kernel_size=3, stride=3, padding=0, dilation=1, ceil_mode=False)
          )
          (norms): ModuleList(
            (0): LayerNorm((64,), eps=1e-05, elementwise_affine=True)
            (1): LayerNorm((64,), eps=1e-05, elementwise_affine=True)
          )
        )
        (drop_path): DropPath(drop_prob=0.043)
        (norm2): LayerNorm((64,), eps=1e-06, elementwise_affine=True)
        (mlp): Efficent_FFN(
          (se): SEAttention(
            (avg_pool): AdaptiveAvgPool2d(output_size=1)
            (fc): Sequential(
              (0): Linear(in_features=64, out_features=4, bias=True)
              (1): ReLU(inplace=True)
              (2): Linear(in_features=4, out_features=64, bias=True)
              (3): Sigmoid()
            )
          )
          (mffn): Sequential(
            (0): Conv2d(64, 256, kernel_size=(1, 1), stride=(1, 1))
            (1): BatchNorm2d(256, eps=1e-05, momentum=0.1, affine=True, track_running_stats=True)
            (2): SiLU()
            (3): Conv2d(256, 256, kernel_size=(3, 3), stride=(1, 1), padding=(1, 1), groups=256)
            (4): BatchNorm2d(256, eps=1e-05, momentum=0.1, affine=True, track_running_stats=True)
            (5): SiLU()
            (6): Conv2d(256, 64, kernel_size=(1, 1), stride=(1, 1))
            (7): BatchNorm2d(64, eps=1e-05, momentum=0.1, affine=True, track_running_stats=True)
          )
          (drop): Dropout(p=0.0, inplace=False)
        )
      )
    )
    (norm2): LayerNorm((64,), eps=1e-06, elementwise_affine=True)
    (patch_embed3): OverlapPatchEmbed(
      (proj): Conv2d(64, 160, kernel_size=(3, 3), stride=(2, 2), padding=(1, 1))
      (norm): LayerNorm((160,), eps=1e-05, elementwise_affine=True)
    )
    (block3): ModuleList(
      (0): AbsolutePositionEmbedding(
        (drop): Dropout(p=0.0, inplace=False)
      )
      (1): Dual_Granularity_Former_Block(
        (norm1): LayerNorm((160,), eps=1e-06, elementwise_affine=True)
        (attn): Dual_Granularity_Attention(
          (q): Linear(in_features=160, out_features=160, bias=True)
          (kv): Linear(in_features=160, out_features=320, bias=True)
          (attn_drop): Dropout(p=0.0, inplace=False)
          (proj): Linear(in_features=160, out_features=160, bias=True)
          (proj_drop): Dropout(p=0.0, inplace=False)
          (sr): ModuleList(
            (0): MaxPool2d(kernel_size=4, stride=4, padding=0, dilation=1, ceil_mode=False)
            (1): MaxPool2d(kernel_size=2, stride=2, padding=0, dilation=1, ceil_mode=False)
          )
          (norms): ModuleList(
            (0): LayerNorm((160,), eps=1e-05, elementwise_affine=True)
            (1): LayerNorm((160,), eps=1e-05, elementwise_affine=True)
          )
        )
        (drop_path): DropPath(drop_prob=0.057)
        (norm2): LayerNorm((160,), eps=1e-06, elementwise_affine=True)
        (mlp): Efficent_FFN(
          (se): SEAttention(
            (avg_pool): AdaptiveAvgPool2d(output_size=1)
            (fc): Sequential(
              (0): Linear(in_features=160, out_features=10, bias=True)
              (1): ReLU(inplace=True)
              (2): Linear(in_features=10, out_features=160, bias=True)
              (3): Sigmoid()
            )
          )
          (mffn): Sequential(
            (0): Conv2d(160, 640, kernel_size=(1, 1), stride=(1, 1))
            (1): BatchNorm2d(640, eps=1e-05, momentum=0.1, affine=True, track_running_stats=True)
            (2): SiLU()
            (3): Conv2d(640, 640, kernel_size=(3, 3), stride=(1, 1), padding=(1, 1), groups=640)
            (4): BatchNorm2d(640, eps=1e-05, momentum=0.1, affine=True, track_running_stats=True)
            (5): SiLU()
            (6): Conv2d(640, 160, kernel_size=(1, 1), stride=(1, 1))
            (7): BatchNorm2d(160, eps=1e-05, momentum=0.1, affine=True, track_running_stats=True)
          )
          (drop): Dropout(p=0.0, inplace=False)
        )
      )
      (2): Dual_Granularity_Former_Block(
        (norm1): LayerNorm((160,), eps=1e-06, elementwise_affine=True)
        (attn): Dual_Granularity_Attention(
          (q): Linear(in_features=160, out_features=160, bias=True)
          (kv): Linear(in_features=160, out_features=320, bias=True)
          (attn_drop): Dropout(p=0.0, inplace=False)
          (proj): Linear(in_features=160, out_features=160, bias=True)
          (proj_drop): Dropout(p=0.0, inplace=False)
          (sr): ModuleList(
            (0): MaxPool2d(kernel_size=4, stride=4, padding=0, dilation=1, ceil_mode=False)
            (1): MaxPool2d(kernel_size=2, stride=2, padding=0, dilation=1, ceil_mode=False)
          )
          (norms): ModuleList(
            (0): LayerNorm((160,), eps=1e-05, elementwise_affine=True)
            (1): LayerNorm((160,), eps=1e-05, elementwise_affine=True)
          )
        )
        (drop_path): DropPath(drop_prob=0.071)
        (norm2): LayerNorm((160,), eps=1e-06, elementwise_affine=True)
        (mlp): Efficent_FFN(
          (se): SEAttention(
            (avg_pool): AdaptiveAvgPool2d(output_size=1)
            (fc): Sequential(
              (0): Linear(in_features=160, out_features=10, bias=True)
              (1): ReLU(inplace=True)
              (2): Linear(in_features=10, out_features=160, bias=True)
              (3): Sigmoid()
            )
          )
          (mffn): Sequential(
            (0): Conv2d(160, 640, kernel_size=(1, 1), stride=(1, 1))
            (1): BatchNorm2d(640, eps=1e-05, momentum=0.1, affine=True, track_running_stats=True)
            (2): SiLU()
            (3): Conv2d(640, 640, kernel_size=(3, 3), stride=(1, 1), padding=(1, 1), groups=640)
            (4): BatchNorm2d(640, eps=1e-05, momentum=0.1, affine=True, track_running_stats=True)
            (5): SiLU()
            (6): Conv2d(640, 160, kernel_size=(1, 1), stride=(1, 1))
            (7): BatchNorm2d(160, eps=1e-05, momentum=0.1, affine=True, track_running_stats=True)
          )
          (drop): Dropout(p=0.0, inplace=False)
        )
      )
    )
    (norm3): LayerNorm((160,), eps=1e-06, elementwise_affine=True)
    (patch_embed4): OverlapPatchEmbed(
      (proj): Conv2d(160, 256, kernel_size=(3, 3), stride=(2, 2), padding=(1, 1))
      (norm): LayerNorm((256,), eps=1e-05, elementwise_affine=True)
    )
    (block4): ModuleList(
      (0): AbsolutePositionEmbedding(
        (drop): Dropout(p=0.0, inplace=False)
      )
      (1): Dual_Granularity_Former_Block(
        (norm1): LayerNorm((256,), eps=1e-06, elementwise_affine=True)
        (attn): Dual_Granularity_Attention(
          (q): Linear(in_features=256, out_features=256, bias=True)
          (kv): Linear(in_features=256, out_features=512, bias=True)
          (attn_drop): Dropout(p=0.0, inplace=False)
          (proj): Linear(in_features=256, out_features=256, bias=True)
          (proj_drop): Dropout(p=0.0, inplace=False)
          (sr): ModuleList(
            (0): MaxPool2d(kernel_size=2, stride=2, padding=0, dilation=1, ceil_mode=False)
            (1): MaxPool2d(kernel_size=1, stride=1, padding=0, dilation=1, ceil_mode=False)
          )
          (norms): ModuleList(
            (0): LayerNorm((256,), eps=1e-05, elementwise_affine=True)
            (1): LayerNorm((256,), eps=1e-05, elementwise_affine=True)
          )
        )
        (drop_path): DropPath(drop_prob=0.086)
        (norm2): LayerNorm((256,), eps=1e-06, elementwise_affine=True)
        (mlp): Efficent_FFN(
          (se): SEAttention(
            (avg_pool): AdaptiveAvgPool2d(output_size=1)
            (fc): Sequential(
              (0): Linear(in_features=256, out_features=16, bias=True)
              (1): ReLU(inplace=True)
              (2): Linear(in_features=16, out_features=256, bias=True)
              (3): Sigmoid()
            )
          )
          (mffn): Sequential(
            (0): Conv2d(256, 1024, kernel_size=(1, 1), stride=(1, 1))
            (1): BatchNorm2d(1024, eps=1e-05, momentum=0.1, affine=True, track_running_stats=True)
            (2): SiLU()
            (3): Conv2d(1024, 1024, kernel_size=(3, 3), stride=(1, 1), padding=(1, 1), groups=1024)
            (4): BatchNorm2d(1024, eps=1e-05, momentum=0.1, affine=True, track_running_stats=True)
            (5): SiLU()
            (6): Conv2d(1024, 256, kernel_size=(1, 1), stride=(1, 1))
            (7): BatchNorm2d(256, eps=1e-05, momentum=0.1, affine=True, track_running_stats=True)
          )
          (drop): Dropout(p=0.0, inplace=False)
        )
      )
      (2): Dual_Granularity_Former_Block(
        (norm1): LayerNorm((256,), eps=1e-06, elementwise_affine=True)
        (attn): Dual_Granularity_Attention(
          (q): Linear(in_features=256, out_features=256, bias=True)
          (kv): Linear(in_features=256, out_features=512, bias=True)
          (attn_drop): Dropout(p=0.0, inplace=False)
          (proj): Linear(in_features=256, out_features=256, bias=True)
          (proj_drop): Dropout(p=0.0, inplace=False)
          (sr): ModuleList(
            (0): MaxPool2d(kernel_size=2, stride=2, padding=0, dilation=1, ceil_mode=False)
            (1): MaxPool2d(kernel_size=1, stride=1, padding=0, dilation=1, ceil_mode=False)
          )
          (norms): ModuleList(
            (0): LayerNorm((256,), eps=1e-05, elementwise_affine=True)
            (1): LayerNorm((256,), eps=1e-05, elementwise_affine=True)
          )
        )
        (drop_path): DropPath(drop_prob=0.100)
        (norm2): LayerNorm((256,), eps=1e-06, elementwise_affine=True)
        (mlp): Efficent_FFN(
          (se): SEAttention(
            (avg_pool): AdaptiveAvgPool2d(output_size=1)
            (fc): Sequential(
              (0): Linear(in_features=256, out_features=16, bias=True)
              (1): ReLU(inplace=True)
              (2): Linear(in_features=16, out_features=256, bias=True)
              (3): Sigmoid()
            )
          )
          (mffn): Sequential(
            (0): Conv2d(256, 1024, kernel_size=(1, 1), stride=(1, 1))
            (1): BatchNorm2d(1024, eps=1e-05, momentum=0.1, affine=True, track_running_stats=True)
            (2): SiLU()
            (3): Conv2d(1024, 1024, kernel_size=(3, 3), stride=(1, 1), padding=(1, 1), groups=1024)
            (4): BatchNorm2d(1024, eps=1e-05, momentum=0.1, affine=True, track_running_stats=True)
            (5): SiLU()
            (6): Conv2d(1024, 256, kernel_size=(1, 1), stride=(1, 1))
            (7): BatchNorm2d(256, eps=1e-05, momentum=0.1, affine=True, track_running_stats=True)
          )
          (drop): Dropout(p=0.0, inplace=False)
        )
      )
    )
    (norm4): LayerNorm((256,), eps=1e-06, elementwise_affine=True)
  )
  (neck): FPN(
    (lateral_convs): ModuleList(
      (0): ConvModule(
        (conv): Conv2d(32, 256, kernel_size=(1, 1), stride=(1, 1))
      )
      (1): ConvModule(
        (conv): Conv2d(64, 256, kernel_size=(1, 1), stride=(1, 1))
      )
      (2): ConvModule(
        (conv): Conv2d(160, 256, kernel_size=(1, 1), stride=(1, 1))
      )
      (3): ConvModule(
        (conv): Conv2d(256, 256, kernel_size=(1, 1), stride=(1, 1))
      )
    )
    (fpn_convs): ModuleList(
      (0): ConvModule(
        (conv): Conv2d(256, 256, kernel_size=(3, 3), stride=(1, 1), padding=(1, 1))
      )
      (1): ConvModule(
        (conv): Conv2d(256, 256, kernel_size=(3, 3), stride=(1, 1), padding=(1, 1))
      )
      (2): ConvModule(
        (conv): Conv2d(256, 256, kernel_size=(3, 3), stride=(1, 1), padding=(1, 1))
      )
      (3): ConvModule(
        (conv): Conv2d(256, 256, kernel_size=(3, 3), stride=(1, 1), padding=(1, 1))
      )
    )
  )
  init_cfg={'type': 'Xavier', 'layer': 'Conv2d', 'distribution': 'uniform'}
  (decode_head): FPNHead(
    input_transform=multiple_select, ignore_index=255, align_corners=False
    (loss_decode): CrossEntropyLoss(avg_non_ignore=False)
    (conv_seg): Conv2d(128, 150, kernel_size=(1, 1), stride=(1, 1))
    (dropout): Dropout2d(p=0.1, inplace=False)
    (scale_heads): ModuleList(
      (0): Sequential(
        (0): ConvModule(
          (conv): Conv2d(256, 128, kernel_size=(3, 3), stride=(1, 1), padding=(1, 1), bias=False)
          (bn): SyncBatchNorm(128, eps=1e-05, momentum=0.1, affine=True, track_running_stats=True)
          (activate): ReLU(inplace=True)
        )
      )
      (1): Sequential(
        (0): ConvModule(
          (conv): Conv2d(256, 128, kernel_size=(3, 3), stride=(1, 1), padding=(1, 1), bias=False)
          (bn): SyncBatchNorm(128, eps=1e-05, momentum=0.1, affine=True, track_running_stats=True)
          (activate): ReLU(inplace=True)
        )
        (1): Upsample()
      )
      (2): Sequential(
        (0): ConvModule(
          (conv): Conv2d(256, 128, kernel_size=(3, 3), stride=(1, 1), padding=(1, 1), bias=False)
          (bn): SyncBatchNorm(128, eps=1e-05, momentum=0.1, affine=True, track_running_stats=True)
          (activate): ReLU(inplace=True)
        )
        (1): Upsample()
        (2): ConvModule(
          (conv): Conv2d(128, 128, kernel_size=(3, 3), stride=(1, 1), padding=(1, 1), bias=False)
          (bn): SyncBatchNorm(128, eps=1e-05, momentum=0.1, affine=True, track_running_stats=True)
          (activate): ReLU(inplace=True)
        )
        (3): Upsample()
      )
      (3): Sequential(
        (0): ConvModule(
          (conv): Conv2d(256, 128, kernel_size=(3, 3), stride=(1, 1), padding=(1, 1), bias=False)
          (bn): SyncBatchNorm(128, eps=1e-05, momentum=0.1, affine=True, track_running_stats=True)
          (activate): ReLU(inplace=True)
        )
        (1): Upsample()
        (2): ConvModule(
          (conv): Conv2d(128, 128, kernel_size=(3, 3), stride=(1, 1), padding=(1, 1), bias=False)
          (bn): SyncBatchNorm(128, eps=1e-05, momentum=0.1, affine=True, track_running_stats=True)
          (activate): ReLU(inplace=True)
        )
        (3): Upsample()
        (4): ConvModule(
          (conv): Conv2d(128, 128, kernel_size=(3, 3), stride=(1, 1), padding=(1, 1), bias=False)
          (bn): SyncBatchNorm(128, eps=1e-05, momentum=0.1, affine=True, track_running_stats=True)
          (activate): ReLU(inplace=True)
        )
        (5): Upsample()
      )
    )
  )
  init_cfg={'type': 'Normal', 'std': 0.01, 'override': {'name': 'conv_seg'}}
)
2023-07-15 23:19:19,233 - mmseg - INFO - Loaded 20210 images
…
